model.pth (torch, 201809 bytes, 18 tensors)

linear1.weight f4 [24, 48]
00000000: 8083 523d e5b9 b8bd aa4d 143e c29b 873e
00000010: d1c3 8b3d 1b28 173e 482d 70bd f01f 473d
00000020: cdab 623d a7b5 4d3e 6389 85bd b955 8a3e
00000030: edf8 9fbd 1f25 353e 34f4 82bd 0db1 2d3e
00000040: 6641 1abd d3d9 9f3d 4a10 023e 9421 293e
00000050: 6c25 f43d 1610 6fbc f674 2a3d 6abb 4b3e
00000060: 07be 0fbe 422e 103e ce68 8e3e 8441 813e
00000070: f613 e13d 0879 a4bd 8e44 0b3e 2c35 093e
00000080: 89f4 3a3e 817f cfbc 6266 6d3e 9a7c 663e
00000090: 01c9 d43c 047b d1bc 2a0c 043e ba3f 3c3e
000000a0: 7424 fc3d b059 3bbe 1522 983e 9258 fe3d
000000b0: 9a48 c03d 75ce 68bd a564 f03d 08e6 123e
000000c0: db2c a03c fb8a 603d 6df1 393e c735 f6bd
000000d0: 3b9e 3a3e b18c 283e 6eb1 8f3c 0cea 963e
000000e0: 4449 2a3e 6dc0 263d 2f0d a13e 7802 ac3e
000000f0: ebbf 453e c6ab 8c3d 6094 803d a91f 833e
00000100: a719 243d 529d 0a3e dd0a 173d c9f0 4d3e
00000110: c9ea d83d c321 8a3d 95e0 76bd 3c0d 9f3e
00000120: cf6e e2bd e1b8 e63d 33ac 273d f5a9 2f3e
00000130: db56 28be 46c3 3e3e b270 3f3d 22f2 a63e
00000140: cb5f 5bbe 71fa 1c3e 125b 613d df5c ae3e
00000150: c101 07be f8ec 8d3e 5f2a 02be 8524 b23e
00000160: 705d 62be 321a 7b3e 76ef 5ebe 5400 cc3d
00000170: 510a 5ebe f64c 553e 758b 19be c1e5 103e
00000180: 795b 193d 0794 edbd c36d 493d 9898 d73e
00000190: da36 9fbe 6aba 663c 6068 92bc 7025 dfbd
000001a0: 534a acbe 7ea8 b13d ec5c 60bd ccc8 e43d
000001b0: 1703 74be b82b 903c 1fb4 18bd 4837 213e
000001c0: 8e19 98be eac7 52be 51f6 3a3e 4354 4c3c
000001d0: 13b7 18be d335 47be 513b 103e 3c40 06bd
000001e0: 1a06 3e3d e8ab 9bbe 645e 763e 20f6 a3bd
000001f0: d394 963d 8524 adbe 1771 b73e 5ed1 33be
00000200: da0e 1abe 1ba3 8fbe f8bf 993e 6cd2 d53d
00000210: d226 d43d 9863 a4be 43bb 863e c93a db3d
00000220: ef57 383e 4e68 9ebe c18a 903d fdbc f03d
00000230: 9250 9e3c dcea f1bd 84ee b93d 9959 44bd
00000240: 82f0 0c3e 42e2 d3bd a004 79be 6ec4 d73e
00000250: 0f57 ca3d b732 c6be bc8f 15bd 577a 85bd
00000260: be0e 5d3d b18a 11be efc7 f9bd 5ea2 86bd
00000270: 79ae 273e 1ed7 8cbe ba2a 08bd 53ee 36be
00000280: 324b 333e 1f3b b6bd 59f6 cbbd d957 0cbe
00000290: a183 913d 32a1 4ebe d7da acbd f0bc 27be
000002a0: 174a 993e 3586 13bd a92e 413c b734 2ebe
000002b0: 553d 073e 6ca5 6f3e 439f cdbd 0201 80bc
000002c0: 52bf b73d 6674 103e 8cd0 89bd ac5a 9ebd
000002d0: d197 023e e124 6e3e cccf d7bd 6919 983d
000002e0: 0d3d 0fbc 9c08 c53e 75e5 81be a2a4 973d
000002f0: 8265 583d f936 513e 87a2 d8bd 0bed 693d
00000300: 8405 733e bdf2 38bd 5955 1a3e 1f11 1d3e
00000310: e48e d4bd cd6c 313e 9870 23bd 0dbd b03e
00000320: 0e83 ab3c f5fa c63d 8d3c 51bd 8e19 003f
00000330: 9d0a 74be 5d88 873e 02a5 4dbe 1e79 c43e
00000340: 954a d93c 6d1f 1b3e f57c 6f3d b15a b83e
00000350: 9ce2 0cbd 62a7 dcbd 0301 733e 8414 a63e
00000360: 93f5 a3bd ec62 73be 08f5 793e a193 b43e
00000370: 41d4 d53c b81e 90be 7eab 143e 6d4b a43e
00000380: 7fbb 2a3e 43d7 8cbe fc3b 983e 63a1 263e
00000390: b481 c43c 746c 60be b5b1 5e3e 6869 c53e
000003a0: fc28 463e 3cd4 63be d71c 723e a75b e73d
000003b0: ab61 6a3e 3c25 b6be 02d7 df3d 60b7 a33d
000003c0: c976 f73c 5a13 bc3e 5f79 f93d 03b6 2a3e
000003d0: 6a8f 843d c7f5 563e 45cf 463d 9caf 303e
000003e0: 46dc e93d 5335 823e 4914 a0bd b1be 153e
000003f0: 9af9 383e 9b48 233e c89b 02be 45a4 8e3e
0.05139494 -0.090198316 0.14482751 0.2648602 0.068244584 0.14761393 -0.058636934 0.048614442
0.055339623 0.20088826 -0.06520345 0.27018526 -0.07811151 0.17689942 -0.06394234 0.16962071
-0.037660025 0.078052185 0.12701526 0.16516715 0.119212 -0.0145912375 0.04161545 0.19895712
-0.14037333 0.14080146 0.27814335 0.25245297 0.10990135 -0.080308974 0.1360037 0.1339919
0.18257345 -0.025329353 0.23183587 0.22508469 0.025974752 -0.025571354 0.12895265 0.18383685
0.123116404 -0.18295932 0.29713503 0.12419237 0.09388848 -0.056837518 0.117379464 0.14345562
0.019552639 0.054820042 0.18158503 -0.12021976 0.18224423 0.1645992 0.01754066 0.2947544
0.16629511 0.040710855 0.3145537 0.33595634 0.19311492 0.06868701 0.062783 0.25610092
0.040063526 0.13536575 0.036875594 0.20111383 0.10591657 0.06744721 -0.060272772 0.31064785
-0.11056291 0.112657316 0.040935706 0.17154677 -0.16439383 0.18629178 0.046738334 0.32606608
-0.21423261 0.15329911 0.055018492 0.3405523 -0.13184263 0.27719855 -0.12711476 0.34793487
-0.22105956 0.24521711 -0.21771035 0.09961 -0.21683623 0.2083014 -0.14994605 0.14150144
0.03744075 -0.116004996 0.049176943 0.42108607 -0.31096536 0.0140825305 -0.017872036 -0.108958125
-0.33650455 0.086747155 -0.054776117 0.111711115 -0.23829304 0.017598972 -0.03728115 0.15743744
-0.29706997 -0.20584074 0.18258025 0.012471261 -0.14913587 -0.19454126 0.14085127 -0.032776102
0.046392538 -0.30404592 0.24059445 -0.08005929 0.07352605 -0.33816925 0.35828468 -0.17560336
-0.15044728 -0.28054127 0.30029273 0.104405254 0.10358967 -0.32107234 0.26314744 0.10704572
0.18002294 -0.30938953 0.07057715 0.11754797 0.019325528 -0.11812374 0.09078696 -0.04793701
0.13763621 -0.1034589 -0.2431817 0.4214205 0.09879886 -0.38710567 -0.03651403 -0.06517475
0.053969137 -0.14213063 -0.121963374 -0.06573938 0.1637515 -0.2750787 -0.033243872 -0.17864351
0.17509153 -0.08897995 -0.099590965 -0.13705386 0.07105184 -0.20178679 -0.08440178 -0.16380668
0.2993934 -0.03601666 0.01179091 -0.17012297 0.1320699 0.23402947 -0.100401424 -0.01562548
0.08972038 0.14106902 -0.0672923 -0.07732138 0.12753226 0.23256256 -0.10537681 0.074267216
-0.008742583 0.3848313 -0.25370374 0.07404448 0.05283118 0.20431127 -0.10577875 0.057110827
0.23732573 -0.04515337 0.1507162 0.15338562 -0.10378817 0.1732666 -0.0399023 0.34519234
0.020936515 0.09715835 -0.051083136 0.50038993 -0.23832174 0.26471224 -0.20082477 0.38373655
0.026524821 0.15148707 0.058468778 0.36006692 -0.0343958 -0.10774113 0.23730855 0.32437527
-0.08005824 -0.23768204 0.24409878 0.35268882 0.026102187 -0.28148437 0.14518544 0.32088795
0.16673087 -0.27507982 0.29733264 0.16272502 0.023987629 -0.21916372 0.21747477 0.3855698
0.19351572 -0.2224893 0.23643814 0.11296778 0.2288882 -0.35575283 0.10929681 0.079939604
0.030208008 0.36733514 0.12181353 0.16670994 0.064726666 0.20992194 0.04853751 0.1725449
0.11418967 0.25431308 -0.07816369 0.14623524 0.18063965 0.15945666 -0.12754738 0.27859703

linear1.bias f4 [24]
00000000: fe02 4f3e 00f1 0cbc 5692 893e aa5c 863e
00000010: 47f7 a03e 7e5c 853d 3d62 093e 7e90 2b3d
00000020: 8170 383e e03f 993e 55d4 3d3e 8d7e 393e
00000030: 8676 b03d f413 883e 9cf5 d2bd 7b5e 9a3e
00000040: 84dc 223e 38b8 22bd 6ebc 453e 106f 893e
00000050: 6c78 013d 945c 643e 4aa0 8b3d 8bb2 80be
0.20215985 -0.008602381 0.26869458 0.26242572 0.31438658 0.06511782 0.13416381 0.041885845
0.18011667 0.29931545 0.1853803 0.18114682 0.086163566 0.26577723 -0.103007525 0.30150208
0.15904433 -0.039726466 0.19310161 0.26842546 0.031608984 0.22300941 0.06817682 -0.25136217

linear2.weight f4 [12, 24]
00000000: 2b3e 313d b954 003f d7d8 053e ea63 c8be
00000010: a4f5 853e 2c9f fa3d 4323 503d 2b8e 16bc
00000020: 6161 2dbe 6aac e8bd 0fec 863e c119 083d
00000030: d51f c33d 3c4d 253d d60a 073d ef55 863e
00000040: fe23 c2be 2511 c53d 5b7f 13be 20c2 2abd
00000050: 7dee 793e 9aba 89be 30de 0abf db26 e73d
00000060: c11f 0fbd b317 2cbe 8fd2 d13e 1fbf e43e
00000070: 762b 9d3d fb10 59be 9c40 c7bd da10 c93e
00000080: 5228 63be 0a33 a2bd a93b a33e 258c 263e
00000090: ff1a ed3d a759 3d3e 33bb 62be 5eff 58ba
000000a0: 8e37 b03d 1d8b 293e 6aaa 8fbe cd3c aa3e
000000b0: 344f 08bd 72a7 b23e 68ef 0f3e a3bd 093e
000000c0: 4eaa febd 3912 54be 6a6b 42be 0a91 b53b
000000d0: cdb5 af3c 61d7 23be 5133 213e 3efd fcbd
000000e0: ab58 fc3d 81a0 3cbe 0e14 663d c856 47be
000000f0: 45ae eabc 81f1 5dbe 76ca c0bc 61b0 393b
00000100: 1424 bdbd 4c1a 213e f140 3bbd 5d5e 5abe
00000110: eadf ab3d 4423 f53d 78d6 1f3e cb1f 003d
00000120: ed61 773e 6334 97bd e81b c33e 8fa8 bf3e
00000130: 721b 293e 8018 fdbd c235 093b 1d5e e8bd
00000140: e37e d6bd 9103 a43e cda3 023e 054c 2bbe
00000150: 2299 87be 93bd 353e cf4d 0bbe b343 4f3e
00000160: 7a3a 91be d793 803e 1561 be3d b50f 7c3e
00000170: 82d1 2a3c 1eb2 293e 72bf 99bc bbb4 0ebe
00000180: b894 753e 53fd 91be 009b 703e 3aa0 5ebe
00000190: c3da d03e 5bae 82be 8ad7 2dbf cad0 5b3c
000001a0: 8a00 8bbe 5149 99be 8927 af3e 2786 15bf
000001b0: dac4 b2bd db81 963e d4b4 b9be d839 333e
000001c0: e7bc 653d ba19 34bf a3f6 18bf 58ad 683e
000001d0: 8b4d 38be 663e d23e 2191 dfbe e418 1bbe
000001e0: 0367 2c3d 1edf a7be 37bc d63d 9b6d 05be
000001f0: a04b 513e 95c6 e5be e974 15bf aa88 493e
00000200: b1fd dabe e79d 63bd cc94 b73e 08bc 3dbf
00000210: 689b 15bd d8db 6a3e 0928 24bf 04b8 b23e
00000220: e36d 7e3e f71c 18bf bf5e 3abf 60c2 b83e
00000230: e778 14bc 0128 053f af51 eebe d5fc 88bc
00000240: 56e3 c23d 78f4 0f3f aedc b03e 2865 523d
00000250: 1a79 9b3d c39f 513e 0cd7 14be 9e61 573e
00000260: 7c2c 4c3e 81e1 77bf 66dd 443d 5eeb ab3c
00000270: e46e dc3e 65af 153e d66f f7bd 55f9 613e
00000280: d1b6 55bd 4685 fd3d f5ae a6bc 1b9f 3d3e
00000290: 2688 97be a323 163e 7e8b 023e cb97 1fbe
000002a0: 3ec4 843e 0cdb 8f3e 5791 1dbe dcee 043d
000002b0: 344a 4a3e 9cdb d83e f42c bc3e 664d 7f3d
000002c0: 2d58 ec3e 66bc 683d a6bf dfbc 1d08 d73e
000002d0: 9e79 a03e 0680 833e 0a84 a13e 05fc 903e
000002e0: 606e 9b3d 4756 a13e 514f d53e f356 87bd
000002f0: f4c8 4c3e 5a8a c5bc 0a68 2c3e 924a 813e
00000300: bd08 cebd 30f2 533d 34cd 0f3e 040e 7cbe
00000310: e69a 353e 0e57 b23e a774 59bd 45c6 083e
00000320: 1b80 d33d f0cb 703f a2cf cb3b 1abd a8be
00000330: 2bf9 2fbe a2ed 453d 5457 b7be f72a 973e
00000340: 7068 e53d 8a3c a93d 8daa 3dbc 70ac 2a3c
00000350: 3e65 06be dfb3 16be ee11 63bc c487 ee3d
00000360: 4fa8 833d d8de 8bbe f76f d43e 44bb eb3e
00000370: f97a 083e e0f7 15bf debd 1abf 559b 9c3e
00000380: dd1e 67bd 746e 713e 3bc9 bb3e 1071 dbbe
00000390: a3d4 fabe 530c 8c3d e887 2bbd c944 0d3e
000003a0: ad32 943d 4203 ebbd 076d abbd 4af0 b03e
000003b0: 21c6 87be a011 043f 728d c4be 67fb efbd
000003c0: ebbe e43d 92bb e7be 5758 7a3e e770 02bf
000003d0: 231b b13e 6a7f 10be ddc3 04bf 5230 b43d
000003e0: 6b0d d2be 1a37 0a3d 109a 1a3d b280 0dbf
000003f0: c342 a0bc 802c 91bc f1e7 a4be 1654 c13e
0.04327218 0.50129277 0.13070999 -0.39138728 0.2616397 0.12237391 0.05081488 -0.009189169
-0.16931678 -0.113610104 0.26351973 0.033227686 0.09527556 0.04035686 0.03296932 0.26237437
-0.37918085 0.09622411 -0.14404051 -0.04168904 0.24407382 -0.26900178 -0.5424528 0.11286708
-0.034942392 -0.16805916 0.40980956 0.44677064 0.07674305 -0.21197884 -0.0972912 0.3927067
-0.2218335 -0.07919891 0.31881455 0.16264398 0.11577415 0.18491231 -0.22141723 -0.0008277799
0.08604346 0.16556974 -0.28059703 0.33249512 -0.03327866 0.34893376 0.1405617 0.13451247
-0.12434827 -0.20710076 -0.18986288 0.0055409716 0.021448994 -0.1600013 0.15742232 -0.123529896
0.123215996 -0.18420602 0.05617147 -0.19466698 -0.028647551 -0.21674158 -0.02353404 0.002833389
-0.09235397 0.15732688 -0.04571623 -0.21325059 0.083923176 0.11969617 0.15609157 0.03128032
0.2415845 -0.07383039 0.38107228 0.37433288 0.16514376 -0.12358189 0.0020936583 -0.11346076
-0.104734205 0.3203397 0.12757798 -0.16728218 -0.2648402 0.17748098 -0.136039 0.20240669
-0.28364927 0.25112793 0.09295861 0.24615367 0.010425927 0.16571853 -0.018768046 -0.1393613
0.23982513 -0.28513584 0.23496628 -0.21740809 0.40791902 -0.25523648 -0.6790701 0.013416478
-0.2714885 -0.29938748 0.3420985 -0.58407825 -0.08728953 0.29395947 -0.36270773 0.17502534
0.056088354 -0.70351756 -0.5975134 0.22722375 -0.1799833 0.4106323 -0.43665412 -0.15146214
0.042090427 -0.32787412 0.10485118 -0.13030092 0.20439005 -0.4487807 -0.58381516 0.1968104
-0.42771676 -0.05557051 0.3585571 -0.7411504 -0.03652516 0.22935426 -0.6412359 0.34906018
0.24846606 -0.59419197 -0.7280082 0.36085796 -0.0090620285 0.52014166 -0.46546695 -0.016722122
0.09516017 0.56232405 0.34543365 0.051366 0.07591458 0.204711 -0.14535159 0.21033332
0.19938844 -0.96828467 0.048062705 0.020986255 0.43053353 0.14617689 -0.12081878 0.22067769
-0.0521763 0.123789355 -0.020347098 0.18517725 -0.2959606 0.14662032 0.12748525 -0.15585248
0.2593097 0.28096807 -0.15387474 0.032454357 0.19754869 0.4235505 0.36753047 0.062329672
0.46161023 0.056820296 -0.027313065 0.41998377 0.31342787 0.25683612 0.3154605 0.28317276
0.07589412 0.31511137 0.41662076 -0.06608381 0.19998533 -0.024113823 0.16836563 0.25252205
-0.100602604 0.05174464 0.14043123 -0.24614722 0.1773487 0.34832042 -0.053089764 0.13356884
0.103271686 0.94061184 0.00621982 -0.32956773 -0.17184894 0.048322327 -0.35808814 0.29524967
0.112015605 0.082635 -0.011576307 0.010417089 -0.13124558 -0.14717053 -0.013859255 0.11646989
0.06428587 -0.27318454 0.41491672 0.4604131 0.1332816 -0.5858135 -0.60445964 0.3058726
-0.056425918 0.23577291 0.36676964 -0.42859697 -0.48990354 0.06838288 -0.041877657 0.1379577
0.07236228 -0.11475231 -0.08370405 0.34558326 -0.26518348 0.51589394 -0.38389164 -0.11717873
0.11169227 -0.45260292 0.24447761 -0.50953525 0.34591016 -0.14111105 -0.51861364 0.08798279
-0.41025862 0.033743955 0.03774458 -0.552745 -0.019563084 -0.017721415 -0.32208207 0.37759465

linear2.bias f4 [12]
00000000: c9ac ddbb 3cb3 203e 9ee9 43be a0d2 153d
00000010: 239e 613e 96e8 733d e2ea 273e dbce 9e3e
00000020: 1945 3dbe 8f86 3d3e b66d 073e 6900 293e
-0.0067649824 0.15693372 -0.19132087 0.03657782 0.2203298 0.059547983 0.16398194 0.31017193
-0.1848339 0.18508361 0.13225445 0.16504063

linear3.weight f4 [1200, 12]
00000000: c2bf 3d3d 900f b83d b744 043d f4d7 5a3e
00000010: 1af9 4cbe 2b17 04be 9bc6 d1be 75de 98be
00000020: 549f 9e3e 73e9 0f3e 011b 57be 080f 0a3e
00000030: ed10 1abc ec07 e1bc 1ec2 95bb a355 99bd
00000040: 2c14 19be 5709 b5bd a9a6 243e 94ed ef3e
00000050: 8c19 493e a29d b5bd f7ca a13d f105 8ebe
00000060: 61c7 143e 466a 503e 4e22 94be 2943 e43c
00000070: a0cc 2b3e bacc 31bd 4220 11bf 2b60 703e
00000080: ff2f b1be 727b 013e f6a0 4c3e a14d 5c3e
00000090: fad1 a53e 0a8b b8bd 9a35 c2bd 04be 66be
000000a0: 536d 1d3e 4d0e f03d 058e 24bd ee18 bf3e
000000b0: c6cf 03bd efcf 3e3d 658a ca3d d40e 1abe
000000c0: 929a e93d 3370 3d3e 71be 19be 3e0a ff3b
000000d0: 1b55 8dbe 3920 a3bb 8fb3 5cbe ce85 8b3d
000000e0: 128a 30be 68d8 93be 497c 963e 11aa 8f3e
000000f0: 44fb f9bd 8deb 93bd a6a2 c7bd 41a7 4f3e
00000100: ae03 ca3d 06e1 c6bd 6ce8 52be 5e8b 85be
00000110: 735b 873e bfbd 42be fc50 393e f30f 55bd
00000120: 665b c0be 5d19 2dbe 2746 80be 6529 f23c
00000130: a6f0 0bbf fca9 01bf 6ec2 f33c 5ad5 f23e
00000140: fd47 e4bd 6e5f 1cbf 481c 01bf f99f 9bbe
00000150: bcd2 003c c242 3c3d c3ec 913e b983 0cbe
00000160: 56f0 cc3d a130 6bbe 4b00 b3bd b852 55be
00000170: 05f6 9ebd dc2f 0e3e 5426 373e be23 1b3e
00000180: 33a1 aebd 789d 94be a5d8 8fbe d583 88be
00000190: 9310 923d 7a4d 2b3e 0846 bfbe 5350 a13d
000001a0: 723a 28bc ad16 3a3d 0628 85be d4cf afbe
000001b0: 7360 90be b29d 17be 2df1 863b 059b 31bd
000001c0: 20ea 683b 2dc3 dfbe ddac db3c a384 4a3e
000001d0: 4931 c6bc db41 d13d 8b04 aebe de16 58be
000001e0: b0d6 31bd 5df8 e83d bc62 32be 454f d33e
000001f0: 3082 5c3f dea5 173f dcbb 483d 451e b9be
00000200: e4d5 ea3d 6dd1 673e 8687 8c3e 3769 043f
00000210: e82e 073e 8f5f 763e 118d 5cbe 71f4 703e
00000220: 7e1f bf3e 2103 223e 8e32 e2be 017c 373d
00000230: 2b60 8bbd a666 7a3e 8e32 d73e 8dba 063f
00000240: 0256 003e 35f4 5bbe d846 e63d 25e8 04bc
00000250: c200 cb3e 12e3 6bbd 4c72 94be fb85 ce3c
00000260: ff6e 993d a52a 043e 703a afbd bd71 443d
00000270: 1078 58be 4204 2fbe ea55 54be 6cae b1bd
00000280: 494b 39be ba23 b33c bfdb 233d 4b6d 163c
00000290: b881 5fbd bcf8 923e 0db4 8a3c e2c5 39be
000002a0: 9a03 23bd 9987 e3bd 95c6 62bd e556 57be
000002b0: 2c4f 023e 0fe1 8fbe 9e25 de3d 383f 9b3e
000002c0: 8f5e 613e 61a2 9f3d a00c 613d 655d 61be
000002d0: cc7a c3bd 7408 08be e524 26be 7a82 e6bd
000002e0: 1acc b5be 8382 bdbe 8a47 4c3e 2fe8 bb3e
000002f0: 06ea abbd fee9 99be cb25 d1be c35c c9be
00000300: 95ed 853e 091d d3be ba29 953e 0394 a1bc
00000310: dfcd 323f d408 173e 1c01 3a3e 75b4 8e3d
00000320: 4b3e bdbd 9f41 af3d ff14 de3e e3fd 0a3e
00000330: 4c2b a43d d99d 9fbe 2b7c 8f3e ed58 6e3e
00000340: ef09 a2bc 75e6 953d 042a 53be 0baf f23c
00000350: e1e2 763e 6f6a f53d ed71 a0bd 8496 59bc
00000360: 414b 363e c47e b53d efa3 92be b1b0 553e
00000370: 45ab 9a3e 1583 043f 8afc 433e 46a1 9f3d
00000380: 2ab7 8cbd ce1b 353e c799 1c3e 4e8f 203f
00000390: 4cd6 443e a6de e53c 5483 883e 7ec6 a5bd
000003a0: 1838 16be 32b3 d23d 18e3 0e3f addc 92bc
000003b0: ebfb f73e 444a 17bf 5e5a 5d3e a756 23be
000003c0: efdc fdbd 5b5e 3b3e 96c4 d9bd 5583 243d
000003d0: 0e10 703e 5c38 0b3e 1963 84be 690f 8b3c
000003e0: 3c9e aebd ceeb 8b3e b3d7 503e 27af 97bd
000003f0: 921b 643d 9c2f 88be 93b3 88bd 47a7 7e3e
0.046325453 0.08987343 0.032292094 0.21371442 -0.200169 -0.12899463 -0.40971836 -0.2985722
0.30980933 0.14053898 -0.21006395 0.13482296 -0.0094034495 -0.027469598 -0.0045702597 -0.07487037
-0.14949101 -0.08839672 0.16079201 0.46860945 0.19638652 -0.08867957 0.079000406 -0.27738908
0.14529182 0.2035304 -0.28932422 0.027864056 0.16777277 -0.043408133 -0.56689847 0.23474185
-0.3460693 0.12644747 0.19983277 0.21513988 0.32386762 -0.090108946 -0.0948288 -0.22533423
0.15373735 0.11721478 -0.040174503 0.37323707 -0.03218057 0.04658502 0.09889678 -0.15044719
0.11406435 0.18499832 -0.15014054 0.0077832034 -0.27603993 -0.0049782065 -0.21552871 0.068126306
-0.1724017 -0.28876042 0.29391697 0.28059438 -0.12206128 -0.07222662 -0.097478196 0.20278646
0.09863983 -0.097108886 -0.20596474 -0.2608289 0.26436958 -0.19017695 0.180973 -0.052017163
-0.3756973 -0.16904207 -0.25053522 0.029560754 -0.54664075 -0.5065 0.029755797 0.474284
-0.11146543 -0.61083114 -0.5043378 -0.30395487 0.007862743 0.045962103 0.28500947 -0.13722123
0.10006778 -0.22967769 -0.0874029 -0.20832336 -0.07761768 0.13885444 0.17885715 0.15150353
-0.0852684 -0.2902639 -0.28094974 -0.2666308 0.071320675 0.16728774 -0.37358117 0.07876649
-0.010267841 0.04543178 -0.26007098 -0.34338248 -0.28198585 -0.1480625 0.004118106 -0.04336073
0.003553994 -0.43703595 0.026815826 0.1977716 -0.024193423 0.10217639 -0.3398784 -0.21102473
-0.043417633 0.113754965 -0.17420477 0.41271415 0.8613615 0.5923747 0.04900728 -0.36155906
0.11466578 0.22638483 0.27447146 0.51723045 0.13201487 0.2405989 -0.21538188 0.23530747
0.37328714 0.15821506 -0.44179195 0.044795994 -0.06805452 0.2445322 0.42030758 0.52628404
0.1253281 -0.21479876 0.11243981 -0.008111988 0.39649016 -0.057589598 -0.28993452 0.025210371
0.07491874 0.12906893 -0.08556068 0.04796003 -0.2113955 -0.17091468 -0.20735899 -0.086758465
-0.18095125 0.021867622 0.040004488 0.009181331 -0.05456707 0.28705394 0.016931558 -0.18141893
-0.039798357 -0.111098476 -0.055365164 -0.21029241 0.12725514 -0.28101394 0.10847019 0.3032167
0.22008727 0.07794643 0.05494368 -0.22008283 -0.09544906 -0.13284475 -0.16225012 -0.11255355
-0.3550728 -0.37013635 0.19949165 0.3670058 -0.08394246 -0.30061334 -0.40849146 -0.39328584
0.26157823 -0.4123309 0.29133397 -0.019723898 0.69845384 0.14749461 0.18164486 0.06968013
-0.09240397 0.08557438 0.43375394 0.13573413 0.08016071 -0.31175116 0.2802442 0.2327611
-0.019780127 0.07319347 -0.20621496 0.029624483 0.24109985 0.11983191 -0.078342296 -0.013280515
0.17802145 0.08862069 -0.28640696 0.20868184 0.30208793 0.51762515 0.19139305 0.07794432
-0.06870873 0.17686388 0.15293036 0.62718666 0.19222373 0.028060269 0.26662695 -0.080945
-0.14669836 0.10288085 0.5581527 -0.017927492 0.48434386 -0.59097695 0.21616504 -0.15951024
-0.12395655 0.18297713 -0.10633199 0.04016431 0.23443624 0.13595718 -0.25856856 0.016975122
-0.085262746 0.27328342 0.20394783 -0.074064545 0.055690356 -0.26598823 -0.06674876 0.24868499

linear3.bias f4 [1200]
00000000: fc70 e9bd 8fc1 453e b8c6 853d 02c6 243e
00000010: bbd1 833c d57b 9f3d 7303 823e 3ea5 6cbd
00000020: fb39 e8be 0ce2 4a3e 9966 063e 83ea d13b
00000030: b81d 69be 3593 a0be d7f0 dd3d 4527 23bd
00000040: f779 60be 22b4 b6bd 064e 53be 2de4 b0be
00000050: cfa9 fa3d e9ae 3e3d 39c1 0f3d 2aee 0bbe
00000060: 8198 233d cf8a a8be 9200 393e 781b 72be
00000070: f0bf 0e3e 36b7 353c c98f 6fbe f84a 5dbe
00000080: 6b4a b0be c563 203e d569 b2bd 2d45 8d3d
00000090: 6281 863e 1427 7cbe 7a40 10bc 5d31 bc3e
000000a0: 27fc 62be ede8 9abb 35db a8bd d90b d93d
000000b0: 54e1 073e 68ab d73e 8dd1 7abe deec 1a3c
000000c0: 30a9 693e f41c e73d 2dc8 883d 9d73 1c3e
000000d0: cb24 3d3e cfc5 d73e 7baa e53b 51cd 5a3d
000000e0: 2479 a63e d29b 09be eca1 b0be e12c 6abd
000000f0: a775 8c3c c0f1 07be 1cf1 e8bd 2c73 0bbd
00000100: 337c 723e 8067 dc3d e1d6 013e a23c c93d
00000110: 7887 14be 473a 1bbe 29eb a2be 4ffa e13d
00000120: 66c0 a5bd feb4 53be b069 a2bd b8a3 90be
00000130: c17a ac3d f096 eebb c3de aebe 8463 10be
00000140: 800b f53d a990 d3bc 9f24 d1be 7745 973d
00000150: 1f4f b33e 054a f6bd 5ccf be3d 9b57 1bbe
00000160: 0d90 d43d 39da 19be b903 c6bd f2e3 443e
00000170: d8a3 973e 767d 88be fec3 d1bd 0220 94be
00000180: e60d ab3e 5092 a4bd d263 82bd 1cef d3bd
00000190: 9cfe 6cbe 01aa 9fbe 03f0 6abe ce36 ab3d
000001a0: 5d5c 743e a230 eabd dc19 90be 2d2e 32be
000001b0: d48e 55be 84d7 373e f0bf 7e3e 2b83 babd
000001c0: 559a 61be 995a 2e3e c506 1a3e 8e46 54bc
000001d0: 243a ca3d bac0 f0bd 1f32 17be 34a0 6fbd
000001e0: 5dc7 7bbe e3ff 273e 59aa 09be 6b65 a1be
000001f0: c6e3 51bb 2df9 dbbd fc99 123d 6f78 bb3d
00000200: fe55 7abe c321 873e 7240 1fbd 5820 833e
00000210: 2269 8e3d a9ea 423c 99d0 afbe 2e94 c73e
00000220: f5fc 7d3c d10a 963e 9c22 353e 7fe3 3c3d
00000230: d341 923d d656 17be e10e 0fbe e48f 78be
00000240: bc8b e23e deb3 9dbd f92d cc3d 583c cabd
00000250: 1d9c 7b3d dee5 6d3e 6589 443e c2d5 e9bd
00000260: b602 3a3e 3bac 9dbe 9acb 01be 1af3 9ebe
00000270: 7f29 b93d 1f95 9dbd bc4b 803e afac f33a
00000280: 95ff 7e3d 18cb 8e3e 999f 8e3e 68a6 07be
00000290: bec1 183e 912b 093e 8f1f 143e f0b6 203d
000002a0: 3990 1b3e 793b 45be e8a5 ffbc 3ff5 503d
000002b0: 18b1 bd3b 58b0 08be 840f 33be e5ec 99be
000002c0: 08cf a93d 8418 0dbe f1de 933d 8ea9 02be
000002d0: 87d9 cebb 75dc 043e 4c9b 0bbe 6845 943e
000002e0: 8bb2 1a3d 2155 89be 713d eebb a04c 7cbe
000002f0: f009 9a3c 2f02 04be f4cc f13a 74ad dfbd
00000300: d7f8 673d 3098 15be a69d cdbc 1664 20bd
00000310: e1cc 4d3e e4ad 083d b53a 5bbe ac51 f4be
00000320: c75d b0be 2537 07be 44cd 2d3e 078e 883d
00000330: c99a 37be 376a 57be d806 bcbe 0b00 553e
00000340: 5505 753e 0960 7a3e ed5e 84be de9c 9dbe
00000350: b634 d43d 7ca6 0e3e 9501 0b3e 6089 b33e
00000360: 325e c1ba da99 8cbe 000e 0ebe c2df 4ebe
00000370: 750a 06be b766 6e3d e14c 48bd 03fb 893e
00000380: 12d8 1fbe 688d 0fbc bc42 9cbd 3b5f d93d
00000390: c733 77bd 7719 56be 7ae1 8cbc a1dc 873d
000003a0: f0d7 7ebe cd7d 593e d1dd 6d3e e4ff 243e
000003b0: 14bc 083c 6fa1 4ebe f98f 5bbd 5757 f73e
000003c0: e924 c9bd 8e85 4bbe 54b7 2abe 793a 3abd
000003d0: 9576 1dbd b9d9 e53d e8cc 393d fee9 b43e
000003e0: 32b7 6dbe 9454 db3e 766d 1fbe c62b cd3d
000003f0: 3b5c 21be 9a7c a8be 30d8 223d aff7 003e
-0.11398503 0.19312118 0.06532043 0.16091159 0.016091218 0.07787291 0.25393257 -0.057774775
-0.45356736 0.19812793 0.13125075 0.00640613 -0.22765243 -0.3136231 0.10836952 -0.039832372
-0.21921526 -0.08921076 -0.20635232 -0.34549084 0.1223942 0.046553526 0.03509638 -0.13665071
0.03994036 -0.32918403 0.18066624 -0.23643291 0.13940406 0.011091044 -0.23394693 -0.2161063
-0.34431776 0.15663059 -0.08711592 0.0689796 0.26270586 -0.24624282 -0.008804435 0.3675641
-0.22166501 -0.004727474 -0.082449354 0.10597963 0.1326955 0.4212296 -0.24494 0.009455888
0.22818446 0.11284819 0.066788055 0.15278478 0.18471067 0.42143103 0.0070088482 0.05341846
0.32514298 -0.13438347 -0.34498537 -0.057171706 0.017145945 -0.13275814 -0.11374113 -0.034045383
0.2368019 0.107619286 0.12679626 0.09826018 -0.14504802 -0.1515895 -0.31820038 0.11034071
-0.08093338 -0.20674512 -0.079303145 -0.28249907 0.08421851 -0.0072811767 -0.3415433 -0.14100462
0.11965084 -0.025825815 -0.40848252 0.07386296 0.35021302 -0.12025837 0.093168944 -0.15170138
0.10379038 -0.15024652 -0.09668679 0.19227579 0.2961719 -0.2665822 -0.10242461 -0.2893067
0.3340904 -0.080357194 -0.063666955 -0.10348341 -0.23144001 -0.3118439 -0.2294312 0.083600625
0.23863359 -0.11435057 -0.2814473 -0.17400427 -0.20855266 0.17953306 0.24877906 -0.091070496
-0.22031529 0.17026748 0.15041645 -0.012956275 0.09874371 -0.1175551 -0.14765213 -0.05850239
-0.2458777 0.16406207 -0.13443889 -0.31522688 -0.0032026633 -0.10740886 0.035791382 0.0915383
-0.24446866 0.26392946 -0.03887982 0.25610614 0.06953646 0.011896768 -0.34338835 0.3898024
0.015502204 0.29305127 0.17688984 0.046115395 0.07141461 -0.14779219 -0.1397052 -0.2427364
0.44247234 -0.077003226 0.09969706 -0.09874791 0.061428178 0.23232219 0.19193037 -0.11417724
0.18165097 -0.30795464 -0.12675324 -0.31044847 0.09041118 -0.07694458 0.2505778 0.0018590892
0.06225546 0.27889323 0.27856138 -0.13247073 0.14917657 0.13395526 0.14465164 0.039236963
0.15191735 -0.19260968 -0.03120704 0.051015135 0.0057889335 -0.1334852 -0.17486387 -0.3006355
0.08291441 -0.13778883 0.07220257 -0.12759992 -0.0063125524 0.12974723 -0.1363346 0.28959203
0.037767928 -0.2682276 -0.007270508 -0.24638605 0.018803567 -0.12891458 0.0018447922 -0.109217554
0.056633797 -0.14608836 -0.025099587 -0.03915795 0.20097686 0.03336896 -0.21409114 -0.4771856
-0.34446546 -0.1320463 0.16972834 0.066677146 -0.1793014 -0.21036611 -0.3672397 0.20800798
0.23927815 0.24450697 -0.25853673 -0.30783743 0.10361616 0.13930696 0.13574822 0.35065746
-0.0014752804 -0.2746113 -0.13872528 -0.20202544 -0.13089927 0.058203425 -0.048901442 0.2694932
-0.15609768 -0.008761741 -0.07629916 0.10613867 -0.060352113 -0.20908152 -0.01719736 0.066338785
-0.24887061 0.21239395 0.23229147 0.1611324 0.008345623 -0.2017877 -0.0536041 0.48308823
-0.09821493 -0.19875166 -0.16671497 -0.04546592 -0.038443167 0.11223168 0.04536143 0.35334772
-0.23214415 0.42837965 -0.155691 0.10018115 -0.1575784 -0.32907563 0.039756954 0.12594484

linear1.weight f4 [12, 1200]
00000000: 81ff c8bc 7e3d b4bd 98a9 f8bb 8345 813d
00000010: 48e6 4dbc 9f64 52bd ec42 043d b045 79bd
00000020: 2b53 903d 7211 d23c 13b7 923d 19b3 48bb
00000030: 3077 87bc 2914 9bbc 2b44 b7bd c4af 50bd
00000040: 1683 903b d018 3a3b 0789 d73d 50b9 8ebc
00000050: 364d 09bc c715 9b3b 17c1 ccbc c9c5 d6bc
00000060: 7503 81bd 226a 1c3e 74e3 abbd 9fd0 353e
00000070: 45fd 88bd 21c7 bdbd 42f7 a73c 0b70 3b3a
00000080: b62f 83bb a0b6 9dbd 0282 be3c 4936 293c
00000090: 3c59 12bd a46b 393c 9d73 c03c 907d 4dbe
000000a0: 8bfa 40bd c025 563c 9ee1 213e 4c71 7abd
000000b0: 1c6f f2bb 3aa5 1abd 386b 5fbc bb0b 84bd
000000c0: 89e4 dabd b2f2 b53c fcfb 9b3c dd80 0cbd
000000d0: d059 e4bd 623b bcbd 3d2c 39bd b3b1 753c
000000e0: fb74 00bd 793f 993d 5d8f 203e 1ee9 82bc
000000f0: a290 93bd 1b8a 71ba d386 253c ea01 103d
00000100: b79d 85bd 6e1e 7537 fb08 6c3e 1026 7a3c
00000110: 25cd eabc 94dc 093b 8aad 1b3c e8d5 5b3c
00000120: b589 21be 2710 753d e89c 003e a184 1c3c
00000130: 8642 6ebd c247 c63c b80d e5bd 5b3a 39bb
00000140: 57ae 00bd de86 77bd d15b b13d da46 53bc
00000150: dad8 a3bd b0b5 ab3d d213 66bc eef7 cc3c
00000160: b78d e83c 0ef5 42bd cbab 283e 8f53 603b
00000170: f404 663d ec79 e23a 1e13 24be 67de b5bc
00000180: 49db 393d 36f2 87bb 488e ea3b 635a aebc
00000190: 624f 25bc f985 94bd 4ed3 0b3e 600b 8e3b
000001a0: 17d3 f5bd 12aa d6bb 1827 71bb 6893 9d3d
000001b0: 975f b03c 8b80 633c da92 f5bc b977 4d3c
000001c0: 6dcc d4bc d1b0 a8bd 9971 1f3d 8e0a 57bd
000001d0: f7b3 13bc 4afc fd3d 618c 463d 5859 e63c
000001e0: 1eb3 d43c a941 adbd 9c48 843d f68a bf3c
000001f0: 274c b33c a1a8 57bb 6ad0 453d 2734 95bd
00000200: b9dc fd3d b5b5 c6bd f00d ddbc 6790 98bd
00000210: ac96 32bd e711 dfbb c6f4 bf3d 75da debc
00000220: f07b 85bd fe28 e1bc 0e49 64bb 0dc8 17be
00000230: 8046 47bd a1cf 4c3c ac65 e93c 3719 3ebc
00000240: 82db 863d 22a7 df3d 3028 18be a33e 49bd
00000250: fcca bcbc e1e4 3abd a8de e9bd 5e01 65bc
00000260: 8347 a4bc 5890 e03c 0dbb 5a3d 9476 63bd
00000270: 7062 aabd cc5a 78bc aef3 24bd a0ff 763d
00000280: 862e d2bb eeaa a8bc 3da8 0ebd 245f f03b
00000290: cc05 c739 04fa 15bd a72d 87be e9f0 863d
000002a0: d896 0e3d eb70 233d 48c1 d2bd be09 9fbd
000002b0: df76 2a3d dd32 d43c 7343 083d e333 8b3d
000002c0: c8ad 9cbd bbb7 233d 0952 503c 2c7a 0a3b
000002d0: b00c d5bb 4321 9d3d ee09 56bc 15df 06bd
000002e0: 3558 5abc 5637 853c 3bb0 ffbc e43a 8fbc
000002f0: 7225 f83c eb24 293d cadb 5fbd 51e5 cf3c
00000300: f096 0ebc 5b64 0e3d a081 31bd e045 b8bc
00000310: 8c23 afbe 2e9a f5bc 7281 86bd df59 53bd
00000320: 367a e83c 36d7 723e 901b 8bbd 2bc6 98bc
00000330: b803 c4bc 0e57 153d 6526 ecba c6c5 d1bd
00000340: 2493 64bd 5cf1 aabc 45cc 0b3b c762 3e3e
00000350: 8f37 373c 2944 8fbd ebf3 6cbd 2675 cb3d
00000360: ca15 2f3d bca5 833c e683 14bd c854 583c
00000370: 06c7 f4bd 68f1 25bd b9d6 7d3a ff2e 34bd
00000380: a530 3d3b cfca 8d3c c76c 303d 5f36 113d
00000390: 19ff 223e a30c 65bd 51c2 1fbd 9da5 4c3c
000003a0: 72fe 95bc e6aa 21be 9afe 35bd aa81 ccbc
000003b0: 8d1f b8bd ce94 c0bc cee2 df3d 8044 b0bc
000003c0: b0fd ac3c c738 db3b 6823 1ebd 41a9 863d
000003d0: ff63 85bd 6910 d6bc 4c6f b03c 516d 93bd
000003e0: 4797 1cbd 6d05 8bbd ecd5 76bd cf50 93bd
000003f0: 3242 4fbb 0225 a03c a373 ae3c 7d5d f83d
-0.024535896 -0.08800791 -0.0075885765 0.063120864 -0.01256711 -0.05136549 0.032290384 -0.060857475
0.07047113 0.025643084 0.07163825 -0.0030624329 -0.016536325 -0.018930512 -0.08948549 -0.050948873
0.004410158 0.0028396137 0.10524183 -0.017422348 -0.008380225 0.0047328207 -0.024994416 -0.026217358
-0.062994875 0.15274861 -0.083929926 0.17755364 -0.06688932 -0.092664964 0.020503644 0.00071501796
-0.0040034903 -0.077008486 0.023255352 0.010327884 -0.03572963 0.011317167 0.023492629 -0.2006743
-0.047113936 0.013070524 0.15808722 -0.061143205 -0.007398499 -0.03775523 -0.013636403 -0.0644755
-0.10688121 0.022210453 0.019041054 -0.03430258 -0.11149943 -0.09191014 -0.045208205 0.01499598
-0.03136156 0.074828096 0.15679689 -0.0159803 -0.07205321 -0.0009214 0.010102945 0.035158075
-0.06524222 1.4610223e-05 0.23050301 0.015267864 -0.028662274 0.0021036016 0.009501824 0.013417698
-0.15775187 0.059829857 0.12559855 0.009553106 -0.05816891 0.024204139 -0.11184257 -0.0028263542
-0.031416263 -0.060431354 0.08660091 -0.01289531 -0.080003455 0.083842635 -0.0140428115 0.025020566
0.028387887 -0.047596984 0.16471784 0.0034229492 0.056157067 0.0017278767 -0.16022918 -0.022200776
0.045375142 -0.004148747 0.0071580745 -0.021283334 -0.010089727 -0.07252116 0.13654825 0.004334852
-0.12003153 -0.0065510357 -0.0036796983 0.07694131 0.021529956 0.0138856275 -0.02997725 0.012540751
-0.025976384 -0.0823685 0.038926695 -0.0525003 -0.009015075 0.12401636 0.04847372 0.028118774
0.025964316 -0.08459789 0.06459162 0.023381691 0.021886898 -0.0032906907 0.048294462 -0.07285338
0.12395615 -0.097026266 -0.026984185 -0.074494176 -0.043600723 -0.006807554 0.09372859 -0.027203778
-0.0651778 -0.027485367 -0.0034833583 -0.14822407 -0.04865122 0.012500674 0.028490864 -0.011602691
0.065848365 0.1092055 -0.1485908 -0.049132 -0.02304601 -0.045628432 -0.114194214 -0.013977377
-0.02005363 0.027412578 0.05340104 -0.055533007 -0.08319557 -0.015158366 -0.040271454 0.060302377
-0.0064142374 -0.020589318 -0.034828413 0.0073355604 0.00037960557 -0.036615387 -0.26402017 0.06588919
0.034811825 0.03990261 -0.10290772 -0.0776553 0.04161727 0.02590316 0.03326745 0.06797006
-0.07650334 0.03997014 0.012714871 0.002112995 -0.0065017566 0.0767236 -0.013063891 -0.03292759
-0.013326694 0.016261738 -0.031211963 -0.017484136 0.030291293 0.041294973 -0.054652967 0.025377901
-0.0087029785 0.034763675 -0.04333651 -0.022494256 -0.34206808 -0.029980745 -0.065676585 -0.05159938
0.028378587 0.23714909 -0.067923665 -0.018649181 -0.023927554 0.036459975 -0.0018016814 -0.102428004
-0.055804387 -0.020867042 0.002133147 0.18592368 0.01118268 -0.069954224 -0.057849806 0.09934454
0.04274539 0.01607024 -0.0362586 0.013203807 -0.11952023 -0.040513426 0.000968318 -0.04399013
0.0028868106 0.01730862 0.04307249 0.035452243 0.15917625 -0.055920254 -0.039003674 0.012490657
-0.018309806 -0.15787849 -0.04443226 -0.024964172 -0.08990393 -0.023508456 0.109319314 -0.021517038
0.021117061 0.006690118 -0.038607985 0.06575251 -0.06513213 -0.026130872 0.021537445 -0.07198585
-0.038230207 -0.06788144 -0.060262606 -0.071931474 -0.003162515 0.019548897 0.021295374 0.121272065

linear1.bias f4 [12]
00000000: d48a c7be b8de 4abc db99 04bd eca7 4d3c
00000010: 33ff d2bc 0726 ccbb 3165 6e3b 3579 023f
00000020: 9c51 34be 305a 07bd 1016 30be dc67 febc
-0.38973105 -0.012382202 -0.03237329 0.012552243 -0.025756454 -0.006230119 0.0036376233 0.509662
-0.17609257 -0.033044994 -0.17195916 -0.031055383

linear2.weight f4 [24, 12]
00000000: 5905 553e 2e53 3cbe 3061 343e 53f9 32bd
00000010: 296d 06be cc61 33ba 29c0 a83d 0dfb 613c
00000020: feba bfbd 0f11 00bd bafa 2b3b d173 7cbe
00000030: 671f 2ebe aa27 51be 58e7 8cbe 7392 d4bd
00000040: da40 63bd e080 03be e8ee 743d e9f4 c03d
00000050: d46c 483e 8dd2 963c e9a8 40be aaa1 873e
00000060: 55a9 5abe fe6a 8bbe 0c6c bf3d 9590 40bd
00000070: 168a 723e ef06 cdbd 8090 99bc 4a30 a03e
00000080: 7f48 b23d dc34 933e ab01 26bd 1324 a1bd
00000090: 15b5 693c 1cbd 0cbc bb71 593e 6962 3d3b
000000a0: bae1 e63d 483a e9bd 1876 8abe 2409 043e
000000b0: 90b0 b83c e7ee 53be 404c 093e d172 8c3e
000000c0: 3317 193e d71c 4bbd 2b93 673e d373 5a3d
000000d0: fd3e df3d 0ee4 523e c1c8 45bd 665f 9dbe
000000e0: 88b7 4e3e 7129 2bbe e0d5 2b3e fb6a 87be
000000f0: 7275 34be dfb9 b4bd 8afa 87bc 29d4 4fbd
00000100: b6ba 5abd a295 3e3e 7681 703d 364c d9bc
00000110: 3148 04bd 7af5 c23c 0986 8e3e 2d3e 9abc
00000120: e88c 873e a6f5 5f3e 7a1f 0f3e f45a 82bd
00000130: fcc2 9b3b cd52 473e fa95 313e 28e9 b8bd
00000140: 4036 ff3d 0430 ec3c 2c85 78be b19c e9bd
00000150: 8c28 6abd 0951 613e ac08 4dbe 7cd7 d53d
00000160: c1a2 2c3d cef5 7a3b f20b cabb 61a5 11be
00000170: 7f92 87be 036c 0fbc 0987 14be 256d 7d3e
00000180: ea9e 543d 5052 6bbe c635 0b3e 8f6e ddb9
00000190: 3fee b03d 969a f73d 97df 413e 0c6c 16be
000001a0: 6d9c 08be 8480 e73d 4873 b63e 0d77 6f3b
000001b0: f586 00be 1949 41bd a822 f7bd 03c5 87be
000001c0: 98a4 aa3d 7d42 4e3e 5176 ad3b 046d 4c3e
000001d0: 0ae9 733e b050 eabd d251 5fbe 47b8 5e3c
000001e0: 61f8 11bc 8f84 8cbe 5693 693e 9cc9 07bd
000001f0: 5f95 613e 4b7b 083e d562 11be 95c4 d33c
00000200: 191b 053e fbe8 593e 0cac bfbd 789d 543e
00000210: 06e8 0d3e 9549 cb3d c055 ea3d 2b33 96bd
00000220: 9025 60bd de05 6c3e f3f9 463e c525 a63b
00000230: edce 36be 8e9f 85be a48b 833e a4c3 0c3e
00000240: 39a5 613e 4e75 5fbe e50e 7cbe 172c a0bc
00000250: 3de0 83be 7f9a 5abe f7df 9a3d a317 bebd
00000260: e4a6 9e3c fcae 8bbe 9280 23be 3d95 943d
00000270: 32bd b3be 9fe9 07be 0541 fc3d 4117 003e
00000280: 9de9 93be 163c 07be 1789 503e 81bf 2e3d
00000290: ab6b d43c 153e 963a 1685 ad3e 52d5 83be
000002a0: 0a07 afbd d0b8 70bd f3d6 db3d 0f46 823d
000002b0: 60bc 44be 8293 0ebe d954 413d 0e5f 55be
000002c0: 7a5a a83e 6875 d13d d569 883d 85d2 b7ba
000002d0: ce12 103e bb94 8abe 05a2 e43c 748c 24be
000002e0: a1bf 80be 3835 f63a da6c 4e3e 439c 133d
000002f0: b5a4 2ebe d84e 44be cc6e 5b3e 4c30 fa3c
00000300: d869 31be 7388 41be a5a3 433e 1354 003d
00000310: 0597 9b3d 8e8e 233e 9232 c13d 6086 563e
00000320: 6540 8c3e 99de 403c 7a17 423e 42d7 0bbe
00000330: 40a5 3dbe d002 59be 4b5b 6dbe ab12 03be
00000340: 26ba 55bd 3708 a53c 49f7 57be da36 7a3e
00000350: 7928 96bd ec3a 2dbd d6bf 9e3e 8e21 25be
00000360: 52ea 4e3d 6577 98bd dd78 483e e57a 3cbb
00000370: c974 313e 5144 63be a693 d93c 8367 9bbe
00000380: 2a0c 553e 4551 603e 69b8 473e 9515 2d3d
00000390: 2997 4cbd 5743 6e3e e8b5 5cbe 910e 2f3e
000003a0: 611a 243e 96af 583e a5ba 073e bd82 333d
000003b0: 1614 84be e612 d83d 029c cabd 00e5 26be
000003c0: e99e 493e 5d9c 8b3e f190 61be e9bd 4abc
000003d0: 8565 36be 3876 0abe 7805 36bd 99a1 cd3d
000003e0: b55a 5b3d 3338 69bd 9cb8 11be a93d 26bc
000003f0: 9399 d13c e28d ca3d b67d a73d 8472 8f3e
0.20802821 -0.18391106 0.17615199 -0.043694805 -0.13127579 -0.0006842881 0.08239777 0.013792765
-0.09361838 -0.03126627 0.0026241974 -0.24653555 -0.17004167 -0.20425287 -0.2752025 -0.103794955
-0.05548177 -0.1284213 0.05979815 0.09421713 0.19572765 0.018410945 -0.18814434 0.26490527
-0.21353658 -0.27230066 0.0934678 -0.047012884 0.23685488 -0.10011088 -0.01874566 0.31286842
0.08705234 0.28751266 -0.040528934 -0.07868209 0.014264365 -0.008590009 0.21234791 0.0028897768
0.11273523 -0.113880694 -0.27043223 0.12894112 0.022545129 -0.20696603 0.13407993 0.27431348
0.14950256 -0.04958805 0.22614734 0.053333115 0.10900686 0.20594808 -0.048287157 -0.30736846
0.20187199 -0.16715027 0.16780806 -0.26448807 -0.17622927 -0.088245146 -0.016598959 -0.05073944
-0.053400718 0.18611768 0.058717214 -0.026525598 -0.03229541 0.023798693 0.27836636 -0.018828476
0.2647469 0.21871051 0.13976851 -0.06365004 0.0047534686 0.1946518 0.17342368 -0.09028846
0.12461519 0.02883149 -0.24269551 -0.1140684 -0.057167575 0.22003569 -0.2002284 0.10441491
0.0421474 0.0038293484 -0.006165975 -0.14223243 -0.26478955 -0.008753779 -0.14504637 0.24748667
0.051909365 -0.22980618 0.13594732 -0.00042234777 0.08639192 0.12090032 0.18932949 -0.14689654
-0.13340922 0.11303809 0.35634828 0.0036539466 -0.12551482 -0.047188852 -0.12067157 -0.26517496
0.08332175 0.20142551 0.0052936454 0.19963461 0.23819366 -0.11441171 -0.21808556 0.01359374
-0.008909316 -0.27444884 0.2281011 -0.033151254 0.22029637 0.13328283 -0.14197858 0.025850574
0.12998618 0.21280281 -0.09358987 0.20763195 0.13858041 0.09926144 0.11442137 -0.07333978
-0.054723322 0.23049113 0.19431286 0.0050704204 -0.17852373 -0.26098293 0.25692475 0.13746506
0.22035684 -0.21822092 -0.24615057 -0.019552274 -0.25757018 -0.21347998 0.07562249 -0.09281852
0.019366689 -0.2728194 -0.15967014 0.072550274 -0.35105282 -0.13272713 0.12317089 0.1250887
-0.2888917 -0.13206515 0.20364796 0.0426631 0.025930246 0.0011462594 0.338906 -0.25748688
-0.085462645 -0.05877 0.10734358 0.06361019 -0.19212484 -0.13923457 0.047200058 -0.20837042
0.32881528 0.102274716 0.06660811 -0.0014024532 0.14069673 -0.27066597 0.027909288 -0.16069204
-0.251462 0.0018784171 0.20158711 0.036037695 -0.17055018 -0.19170702 0.21428984 0.030540608
-0.17325532 -0.18899707 0.19105394 0.03133018 0.07597164 0.15972349 0.09433474 0.20949697
0.2739288 0.011771821 0.18954268 -0.13656333 -0.18520069 -0.21192479 -0.23179357 -0.1280009
-0.052179478 0.020145519 -0.21090426 0.24434987 -0.07331938 -0.04229252 0.31005734 -0.16126081
0.050516434 -0.07444648 0.19577356 -0.0028759774 0.17329706 -0.2219403 0.026559662 -0.3035241
0.20805421 0.21906002 0.1950394 0.04225691 -0.049948845 0.23267876 -0.21553767 0.170954
0.16025688 0.2116073 0.13254793 0.043825854 -0.25796574 0.105504796 -0.098930374 -0.16298294
0.19689526 0.27267733 -0.22027947 -0.01237438 -0.17812164 -0.1352166 -0.04443881 0.10040588
0.0535533 -0.05693836 -0.14230579 -0.010146537 0.025585925 0.09890343 0.08178274 0.28017056

linear2.bias f4 [24]
00000000: 9457 b03e d66f ec3e e048 7a3f 0394 83bf
00000010: 15a0 23be bdc5 203e 7828 12bf 5600 01be
00000020: 3e9d 4c3f 1b5f 9dbd b864 87be c6df 9bbe
00000030: 0b78 3c3e ccdb 943e 0cec 69be 0b69 133f
00000040: e582 2e3e 400c 783e f2a3 6abf 1c71 13be
00000050: 1536 6cbe 4ff0 c03e 03ab c43e ab07 183f
0.34441817 0.46179074 0.9776745 -1.0279545 -0.15979035 0.15700431 -0.57093 -0.12597784
0.7992743 -0.076841556 -0.2644403 -0.30444163 0.18405168 0.29073942 -0.22843951 0.5758216
0.1704212 0.24223423 -0.9165641 -0.14398617 -0.23067506 0.3768334 0.38411722 0.593867

linear3.weight f4 [48, 24]
00000000: e055 91bd 445c 943d 6697 cbbe 6a21 ab3d
00000010: 527f c53d f435 e7bd 97ec 313e 5cff 263e
00000020: f719 c3bd ca22 4dbd 7110 81bd 8b46 053e
00000030: b849 00be f3e9 01be 5bd0 66bd dcbe 2c3e
00000040: bc48 203e aebd 28be ccd0 fb3d e6c2 e7bc
00000050: 1d01 aebc f1b2 fbbd c540 e9bc eb51 16be
00000060: 6f1b f33c 0901 233d e165 b9bd 4e9f b23e
00000070: 01eb 08bd ad7b 383e e826 fd3c 29cb 02be
00000080: 677f 36be 22da 0a3e a467 603e 6dfc 63bc
00000090: 81cf 34be ca14 213e b01e 813d c605 ecbd
000000a0: ea89 533e 877e 07be f70e fbbd 2ec1 923d
000000b0: 2519 1fbe 80ff 0c3d bb2f d7bc 9763 b0bd
000000c0: a7dd 27be 4a94 18bd 815e 393d 3a7b a63d
000000d0: 6539 e23c 8fa1 a9be 1c12 133e d1a1 133d
000000e0: ebad abbe d6ed d83c 09fa 81bd 957b 173e
000000f0: 4fba 2e3d bdbf e1be 7734 313e 0d03 113e
00000100: a33a 1cbe ef6f 97bd d04e 043e 51ae 17bd
00000110: cb01 61bc cbb2 6a3d 1450 e7bd d8db 053f
00000120: e424 b43d 594f 67be 3428 84bb 0f72 2c3d
00000130: 5104 023d 99f5 ea3a a926 53be 4999 3dbe
00000140: 606e 5a3d 3eb2 27be 562f b6bd 95bd 133d
00000150: 8d85 4c3d d0d4 05bd 7f47 85bc 1a19 c23d
00000160: 7ce9 6dbd 0ab5 b43d ee4f c63c 740c fabd
00000170: 4b90 aabd 09c6 78be 00d6 723d 0c1b f5be
00000180: 6ed8 a13d bdee 83bc 7131 b3be 9fc6 a83d
00000190: 57f1 193d 4fd3 22be 0a24 ec3d b5ae 353d
000001a0: f7f6 9d3e fa8a 8d3d 6918 963c 898b 113c
000001b0: 1e82 013e abcd 5e3d 1e7a 923d 6da4 09bd
000001c0: b59b ea3c a511 04be 2640 4f3c b8b0 233d
000001d0: 5966 b8bb 6c19 e6be 02af 5dbe f81e c6bd
000001e0: 3e5e 1ebe 1620 363c d34d ffbd 84f5 663e
000001f0: bae4 27bc a04b b83c 1e88 7e3d bd4e 80bd
00000200: ce24 d6be 61b1 b7bd bcad 6bbd c935 0ebe
00000210: 4e7f 0abe a81f 823d 9a0e 42bc a175 0abd
00000220: 2f7b 813e ba6a fc3c e55d 4a3d 50a0 853a
00000230: 67ba 073a 3872 0f3e 7515 973e 43ab 41be
00000240: 3cd7 97bd 6844 7a3e d723 acbc 8779 863d
00000250: 41c2 913d 04b5 a7be c252 483e 4b62 6a3d
00000260: ff8b 903d 482b a6bc 001a 30be 23cb e1bd
00000270: c85f 38bd 14d4 afbe 5721 1d3d 132c ca3d
00000280: fa43 acbd 24ce c5be bd9d d33d 937e 9abc
00000290: 5982 f33d 246e 0fbe 6f1b 21be 03ef c83e
000002a0: 9c49 f9bc efa2 2ebc 9857 dbbe 045d 663e
000002b0: 373c 9fbe 976f 293e 922f c43d eb85 9bbd
000002c0: 6811 bbbd ec59 093e cf83 33be d607 cd3d
000002d0: 6990 24bd 27e1 5f3d fee9 f13c fba2 81be
000002e0: c7ff 9cbc 999d 38be 7778 fdbd de1d 87bd
000002f0: c349 90bd 36a4 d9be 486d 8ebd 0294 97bd
00000300: 7016 4d3e 6b76 0a3e 322a 88be 25f3 083d
00000310: dbae fc3d b91f 443d d60d 213e 6878 133d
00000320: e04a 923e 7abe 72bd adb1 c23d 2d62 dcbd
00000330: 0a2a cc3d 3eaf 8b3c 2484 bb3d bcff f4bd
00000340: c549 34be a480 64be 90e1 ff3c 44d9 883d
00000350: 1ffd 57bd 8c35 b4be c128 143d 7ffd d1bd
00000360: 4029 5e3d 1dc6 03be faae debd 1e6e 873e
00000370: 7a7e a83d cdce 82bd 0f41 79be c31e 083e
00000380: bd67 0ebf fb5f cf3d 807e bdbd 2f67 81bd
00000390: 9de5 edba d003 a43d b8a5 fcbd 2153 f6bd
000003a0: 9f28 9e3e 0695 6d3e 9450 5e3e 0e07 543e
000003b0: 1cbf a93c 0f9e 503e 8866 c63c 8a64 09be
000003c0: d70b 073d a4b4 963e ad60 3fbe a6bc 26be
000003d0: de0d bfbd 0bdb 4fbe bb49 e83d 048f bfbd
000003e0: c9c1 153e 2560 853c df76 563d fe5c 01bb
000003f0: 9188 213d cc8b 79be 6df9 513d e937 8ebd
-0.070964575 0.07244161 -0.39763945 0.083559826 0.09643425 -0.112895876 0.17375408 0.1630835
-0.09526437 -0.050082006 -0.06301964 0.13015191 -0.12528121 -0.12686901 -0.056351047 0.16869682
0.15652746 -0.16478607 0.12295684 -0.028291177 -0.021240765 -0.1228999 -0.028473267 -0.14679687
0.029676167 0.03979591 -0.09052635 0.34887165 -0.033427242 0.18015929 0.030902341 -0.12772812
-0.17822038 0.13559774 0.21914536 -0.013915163 -0.17657281 0.15730587 0.06304681 -0.11524539
0.20658079 -0.1323186 -0.12258714 0.07165752 -0.15536936 0.03442335 -0.026267877 -0.08612745
-0.16393147 -0.037250794 0.04525614 0.08128972 0.027615258 -0.33131072 0.14362377 0.036042992
-0.33531126 0.026480597 -0.063465185 0.14793237 0.042658146 -0.44091597 0.1730517 0.1416132
-0.15256743 -0.073943965 0.1292069 -0.037031475 -0.013733338 0.057299417 -0.112945706 0.5228858
0.08796099 -0.22588862 -0.004033113 0.042100962 0.031742398 0.0017925977 -0.20620216 -0.18515505
0.053327918 -0.16376588 -0.08895747 0.03606947 0.04993205 -0.032673657 -0.016269444 0.09477444
-0.058083996 0.08823593 0.024208035 -0.122094065 -0.08328303 -0.24294294 0.059286118 -0.47872198
0.07902609 -0.01610505 -0.34998658 0.08241009 0.037583675 -0.1590092 0.115303114 0.044356067
0.30852482 0.06911273 0.018322187 0.008883365 0.12647292 0.05439536 0.07152198 -0.033604074
0.0286387 -0.12897356 0.0126495715 0.039963454 -0.005627435 -0.4494127 -0.21648791 -0.096738756
-0.15465638 0.011116048 -0.12466016 0.22554594 -0.010247404 0.022496998 0.06214153 -0.06265018
-0.41824955 -0.08969379 -0.057538733 -0.13887705 -0.13525125 0.06353694 -0.011844302 -0.033803586
0.25289294 0.03081261 0.04940595 0.0010194872 0.00051776174 0.14008415 0.29508558 -0.18912987
-0.074140996 0.24440157 -0.021013184 0.06566148 0.07117129 -0.3275529 0.1956282 0.057222646
0.07057952 -0.02028431 -0.17197418 -0.110250734 -0.04501322 -0.3434149 0.038361873 0.09871688
-0.08411403 -0.38633835 0.103328206 -0.018859183 0.11890096 -0.14006859 -0.15733121 0.3924485
-0.030430607 -0.010658964 -0.42840266 0.2249642 -0.31100628 0.16546474 0.09579386 -0.07593902
-0.09134179 0.13413209 -0.1753075 0.1001126 -0.040176783 0.05465808 0.029530521 -0.25319657
-0.019164933 -0.18028869 -0.123764925 -0.065974936 -0.07045319 -0.42508096 -0.069544375 -0.07401277
0.2002809 0.13521735 -0.26594692 0.033435006 0.123380385 0.047881816 0.15727934 0.0360035
0.2857275 -0.059263684 0.09506545 -0.10760913 0.09968956 0.017051335 0.09156063 -0.1196284
-0.17606266 -0.22314698 0.031235486 0.06682065 -0.05273163 -0.35197103 0.03617168 -0.10253429
0.054238558 -0.12868543 -0.10873218 0.264512 0.082272485 -0.063871 -0.24341224 0.13292985
-0.5562704 0.10125729 -0.092526436 -0.06318509 -0.0018150095 0.0800854 -0.12336296 -0.12027574
0.30890366 0.23201379 0.21710426 0.20705816 0.02072101 0.20372795 0.024218813 -0.13417259
0.032970276 0.29434693 -0.18689223 -0.16282901 -0.09328817 -0.20298402 0.11342188 -0.0935345
0.14624704 0.016281197 0.052359458 -0.0019739266 0.03943688 -0.24369735 0.05126326 -0.06944258

linear3.bias f4 [48]
00000000: 55b9 dbbe 6ff1 95be 6d07 0dbf f82a 1bbe
00000010: e741 b7be 3fe0 ecbe 5d1c 98be e1c3 1ebe
00000020: 344b 9cbe 4e05 2dbf ef35 86be afbe a7bd
00000030: c2b3 9bbe 7b6e 20bf 4a68 efbd 7cbc f6be
00000040: 0b6b eebe b264 d7be 756d 1cbe df71 e4bd
00000050: a3ef 13bf 9cc0 fbbd 80ca bbbe 1b8c 01bf
00000060: 0421 f7be d29f 87bd 0f70 53be 64a0 e5be
00000070: ff6f bebe 301d cd3c ae3c 8dbe eb4a b9be
00000080: 4a11 25bf cdfe edbd 6a6b adbe 97bf 80be
00000090: 0057 aebe 04ef dfbb b150 1fbe 58be a4be
000000a0: 5f89 12bf 02e3 8fbc 376e 32be 44cc b6be
000000b0: 61bc 21bf ac8d ea3d acc8 88bd 4199 30be
-0.42914835 -0.29285762 -0.55089456 -0.1515311 -0.35792467 -0.46264836 -0.2970914 -0.1550441
-0.30526125 -0.6758622 -0.26213023 -0.08190667 -0.30410582 -0.6266858 -0.116898134 -0.48190677
-0.46566042 -0.42069012 -0.1527613 -0.11154532 -0.5778753 -0.12292597 -0.36677933 -0.5060441
-0.48267376 -0.0662228 -0.20648216 -0.4484893 -0.3719482 0.025038332 -0.27585357 -0.3618997
-0.64479506 -0.11620865 -0.33871013 -0.2514617 -0.3405075 -0.006833913 -0.15558125 -0.3217647
-0.5724086 -0.0175643 -0.17424856 -0.35702717 -0.6317807 0.11452803 -0.066789 -0.17245962
